model.tflite (tflite, 3304 bytes, 6 tensors)

arith.constant f4 [4, 8]
00000000: 72bb b03e fa92 863f 1ddb 7e3f cd2e 29bf
00000010: 5de2 5abd 9af4 fabe a8d4 88be c38b 363f
00000020: 2c31 c43e 2946 c4be e598 dcbe 9f06 43be
00000030: 17ec 4bbf a222 033f c24f 763f 7f2c 1b3f
00000040: bb85 9abf 5d21 8abf 4020 ac3e 9c54 133f
00000050: a15a 373f 06aa 513e 7d2e 37bf e908 18bf
00000060: 67de 80be 7e0f 8bbf 12d9 4ebf b714 323f
00000070: 35d5 1c3f 5022 2fbf 2856 253f e12a 2ebf
0.3451801 1.0513604 0.9955309 -0.6608704 -0.053438533 -0.4901474 -0.26724744 0.7130701
0.38318765 -0.38334778 -0.430854 -0.19045494 -0.7965712 0.5122472 0.9621545 0.6061477
-1.2072061 -1.0791432 0.33618355 0.5755098 0.71622664 0.20475015 -0.7155531 -0.59388596
-0.2516968 -1.0864103 -0.80799973 0.6956286 0.6126283 -0.6841173 0.6458459 -0.6803418

arith.constant1 f4 [8, 16]
00000000: ba86 2e3f fa61 0cbe 5758 a13c b6d6 143f
00000010: 423b ad3c 3c2d b73e 5d2d afbe 3b2e 63bb
00000020: 187a 353d 497f db3e 843f 42bf d168 913f
00000030: 1824 853e b076 1b3f e890 a4bc 0da5 f13e
00000040: 7353 cabe a8cf b1be 0338 213e 6739 423f
00000050: d7b1 91bc 860f 12bf d3dc f83d d714 7a3e
00000060: 0fa1 5dbf 7ed1 94be 080b a83e 2981 613f
00000070: 5c75 8e3e 2b55 163e a540 c53d 118d ac3d
00000080: 49af b83e ae1e 983e 26e5 b6bd 64ef 053f
00000090: 318f 7abe ae3f 863f 1ad4 ed3d e0a5 87be
000000a0: 5e58 83bf f50e 983d aac3 453f 174e e73e
000000b0: fbc7 43bd 7880 0ebf 257b 0c3f 789d 37bf
000000c0: 713d 0abf c79e 97bd 609c 80bd 202e 3c3d
000000d0: 2525 87be 4990 d13e 27e1 5d3e e64e 7f3e
000000e0: 8d0c 183f 0477 dcbe daef babe 6fcf 67be
000000f0: da8a 0cbf b5d4 a0be c110 c8be 38c3 ffbe
00000100: a281 303f fd0f cdbd 6b6b 59be 1ae0 54bf
00000110: 3679 abbc 65be 62be e43a 9f3e afe1 2d3b
00000120: 7bb9 053e f988 203e 5557 823f 602d 39bf
00000130: ba8c a73e 421e d8bb 0637 d93e 5ac1 bd3e
00000140: a5b6 35bf 420e c33e 16bf 863e 3639 cd3e
00000150: 94cf 563e 4246 84bc 7727 f7be e233 05bf
00000160: 765d d0be 2795 cb3e 71ec 633f ac8d db3d
00000170: ccfb cb3e 24b3 31be eb2f 7bbe ab00 c43e
00000180: eeb6 483e dd1e 273e 0638 11bf d707 6abe
00000190: b55d a8be a6f3 cc3e 46ed 9b3e bb6a 363e
000001a0: a425 403f fa1b 24bf f362 003f bf3c e53e
000001b0: 0e9a 2bbe 3158 063f da0b 5b3e d2b1 6f3d
000001c0: 7f92 163f d2f9 043d 2bf9 a5be cf30 113f
000001d0: 7ea4 4f3e 8a66 37be 918a 583e 4f8d 083e
000001e0: c078 7dbe 93b1 70be d786 203f b71e 263f
000001f0: 888a cbbd f0ee 0e3f 09e4 0abf a0e1 36bf
0.68174326 -0.1370925 0.019695444 0.5814012 0.02114642 0.357767 -0.34214297 -0.0034665007
0.04430589 0.42870548 -0.7587817 1.1360112 0.260041 0.6072798 -0.020088628 0.47196236
-0.39516792 -0.34728742 0.15744023 0.7586884 -0.017784996 -0.57054937 0.12151494 0.24422012
-0.8657388 -0.2906608 0.32820916 0.8808771 0.27823913 0.14680927 0.096314706 0.08425344
0.36071232 0.29710907 -0.08930425 0.52318406 -0.24468686 1.0488183 0.11612721 -0.2649374
-1.0261343 0.07424728 0.77251685 0.45176765 -0.047798138 -0.5566478 0.54875404 -0.71724653
-0.54 -0.07403331 -0.06279826 0.045942426 -0.26395527 0.40930393 0.2166792 0.24932441
0.5939415 -0.43059552 -0.36511117 -0.22637723 -0.5489937 -0.31412283 -0.39075282 -0.49953628
0.68947804 -0.10012815 -0.21232383 -0.8315445 -0.020931821 -0.22142942 0.31099617 0.0026532223
0.13059036 0.15677251 1.0182902 -0.7233486 0.32724553 -0.006595404 0.42424792 0.37061578
-0.7098182 0.38096815 0.26317662 0.4008271 0.20977622 -0.016146783 -0.48272297 -0.5203229
-0.40696305 0.39762232 0.89032656 0.10720381 0.39840543 -0.17353493 -0.24529998 0.3828176
0.19601032 0.16320367 -0.5672611 -0.22854553 -0.32883993 0.4002964 0.30454463 0.17814152
0.75057435 -0.6410519 0.50150985 0.44772908 -0.16757986 0.5247832 0.2139124 0.058519192
0.58817285 0.03246481 -0.32416663 0.567151 0.20277593 -0.1791021 0.21146609 0.13335155
-0.24753094 -0.23505239 0.6270575 0.6489062 -0.09938532 0.5583334 -0.54254204 -0.71438026

arith.constant2 f4 [4]
00000000: 5149 8a3e f29f 07bf ebd8 8bbe 35b1 3b3f
0.2700906 -0.5297843 -0.27313933 0.7331727

sequential_1/dense_1_2/BiasAdd/ReadVariableOp f4 [8]
00000000: 8057 20be 0ff3 5a3e ee56 f43e c4e4 f7bd
00000010: 4f15 823f 929e 04bf d248 9d3e d806 b23d
-0.15658379 0.21381782 0.47722572 -0.121041805 1.0162753 -0.5180446 0.3071962 0.086927116

sequential_1/dense_1/BiasAdd/ReadVariableOp f4 [16]
00000000: a878 483f 4842 a6be ff83 6dbf 4147 d83d
00000010: fc41 1dbf 1a0a 9e3e 4022 4f3f 4bd8 df3e
00000020: 9117 e93e 5b3e debe 1c8d 5b3e 094e 893e
00000030: b8bc fabd 1f9c 153f 6d94 623f c9da 873e
0.78309107 -0.32472444 -0.92779535 0.105604656 -0.6142881 0.30867082 0.80911636 0.43719706
0.45525792 -0.43406948 0.21440548 0.2681735 -0.122430265 0.58441347 0.8850773 0.26534107

sequential_1/dense_1/MatMul f4 [16, 7]
00000000: e0d9 d93e 1a54 38bd 898b 55be ca33 a2bd
00000010: e28c 85bf a16b 8cbe a720 5abb 0b35 8fbe
00000020: 4570 0cbe bf76 673e 6355 f1bd 58ac 1abf
00000030: 8a41 91bd 7045 063e 174e c1be 404f 07bf
00000040: 05e5 0bbe b5c7 d3be 04a2 513e ad06 1fbe
00000050: 9c51 ba3e a067 18be cb73 da3e 5e0d 903e
00000060: a739 c03e e799 c6bc c4c0 6fbe 863c 67be
00000070: f334 93bd 50b5 b6be f64c f63e 8ac1 83be
00000080: 67ca afbe c991 ba3e e688 a63e 6ae3 a3bf
00000090: 80db 99be 8d21 cf3d d7f3 05be 92e7 0d3f
000000a0: 8e9a 64be f2af ce3c bf22 a2bc af87 473f
000000b0: 4853 a8bd 5365 3f3e 6ded fe3d ba17 983b
000000c0: 5653 8b3e f228 f43e 5bc8 253e 225b b9ba
000000d0: 5c41 963b b4f1 233f 6c4a 35bf 1b3a 883e
000000e0: 8bc0 4ebd 8e67 ddbe 3c35 aa3e cd35 5dbf
000000f0: 41a7 283d f9ce b23c 2c07 49be 7160 a2be
00000100: 8c6b 34bb 0f6a 89bd 2496 663e c17c f6be
00000110: 60cc b83d 2a79 ef3e 9ece 23bc b06c 51be
00000120: fba2 043d 6af7 dc3c 857d bcbd 6f78 853f
00000130: b0c7 03bc 77cc f03e 45db cf3d 82aa 25bf
00000140: dc0d 553d fe7e a63e 61e8 4bbe e10c 26be
00000150: c458 5dbe f422 8b3e b79e 013e 2ad6 bbbe
00000160: 81aa bf3e dc08 a6bc 5bb9 a7be 8edf ab3e
00000170: 202d b8be d453 f2be 646e f8ba edff 7b3e
00000180: 18c0 323f df1f 50be a792 0ebf 07e7 2f3e
00000190: 61c3 063e 7d31 98be ef30 493d 2d70 df3e
000001a0: e78c 3c3d 03c0 34be 08b3 d3be debd da3e
000001b0: 97d7 f3be d256 78be e638 f43e 38cd d7be
0.42549038 -0.04500208 -0.2085401 -0.07920034 -1.0433619 -0.27425864 -0.0033283622 -0.27970156
-0.13714702 0.22603892 -0.11783864 -0.60419226 -0.07092579 0.13112426 -0.3775489 -0.528553
-0.13661583 -0.41363302 0.2047196 -0.1552989 0.36390388 -0.1488328 0.42666468 0.28135198
0.37543985 -0.024243308 -0.23413378 -0.22581682 -0.07187834 -0.35685205 0.48105592 -0.25733596
-0.34334108 0.3643935 0.3252632 -1.2803776 -0.30050278 0.10113821 -0.13081299 0.55431473
-0.22324583 0.025230382 -0.019791959 0.7794141 -0.0821901 0.18690996 0.12447629 0.0046415003
0.27212018 0.4768749 0.16189711 -0.001414154 0.004585428 0.64040685 -0.70816684 0.2660683
-0.050476592 -0.43243068 0.3324374 -0.8641022 0.04117513 0.021827208 -0.19631642 -0.31714204
-0.0027529923 -0.06709682 0.22518212 -0.48142055 0.090233564 0.46772128 -0.009997992 -0.20451617
0.032381993 0.026973445 -0.092036285 1.0427378 -0.008043215 0.47030994 0.10149244 -0.647133
0.05201517 0.32518762 -0.19912864 -0.1621585 -0.21615893 0.27175105 0.12658201 -0.36686832
0.37434772 -0.020267896 -0.32758602 0.33568996 -0.35971928 -0.4732958 -0.0018953797 0.24609347
0.6982436 -0.20324658 -0.55692524 0.17177974 0.13160469 -0.29725257 0.049118932 0.4364027
0.046032812 -0.17651372 -0.41347528 0.42722982 -0.4762542 -0.2425187 0.4769966 -0.42148757
